SRIM_derived_data/Olivine/O/Tables/skewnorm_params.npy (npy, 672 bytes, 1 tensors)

array (column-major) f8 [4, 17]
00000000: 9a99 9999 9999 b93f 8ce1 281b 193b 5541
00000010: e6fa 9d9f 0a41 85be ea1a a201 074d c43f
00000020: 9a99 9999 9999 c93f fcd0 d20d d7ae 3b41
00000030: 2cb0 5834 58d6 bebe a25b 457e a799 e53f
00000040: 3333 3333 3333 d33f 7272 3f1e d527 9141
00000050: ec0e dce9 e074 78be a656 d782 c2b2 f33f
00000060: 9a99 9999 9999 d93f 8af4 0ca1 94eb 0f40
00000070: 34d4 3474 ce89 d13f 38e8 9442 70bb f83f
00000080: 0000 0000 0000 e03f 26d1 0859 7814 0540
00000090: 9ef1 e03b 3ee1 e43f 387e 9b43 ae94 fb3f
000000a0: 3333 3333 3333 e33f 9638 c97c a547 0140
000000b0: 15c1 c127 ebdd ef3f c8a5 a701 838a fe3f
000000c0: 0000 0000 0000 1440 cba4 eaf7 37b7 ec3f
000000d0: b41d 9733 f08f 2840 427d 2ade 8ddb 1d40
000000e0: 0000 0000 0000 2040 7711 4c50 e1f4 cabf
000000f0: c801 a9a3 262f 3a40 544f 271a 0b19 2240
00000100: 0000 0000 0000 2440 2690 6fc2 1351 d8bf
00000110: 3609 c0c6 558a 4040 2668 dcb4 56d6 2540
00000120: 0000 0000 0000 2e40 aeb3 1dc7 6964 f0bf
00000130: 9fdd bb9a bf81 4a40 f610 656a b137 3140
00000140: 0000 0000 0000 3240 4212 88d4 87db f2bf
00000150: 5252 3c1f d576 4f40 66e4 d148 a82e 3440
00000160: 0000 0000 0000 3740 eafb 0339 af4e f6bf
00000170: e882 f964 bafe 5340 66a2 849f ce0b 3940
00000180: 0000 0000 0000 3940 caae 9011 dec1 f7bf
00000190: c0e3 03f2 a898 5540 a041 22df 114f 3b40
000001a0: 0000 0000 0000 3e40 be11 6eaa c7b0 f8bf
000001b0: 33e4 4d31 1a7a 5940 9efe eb15 d90c 3f40
000001c0: 0000 0000 0080 4040 b951 04a7 0415 fcbf
000001d0: 66e9 fef0 e5f8 5b40 2ed8 fbfb 8520 4140
000001e0: 0000 0000 0000 4340 7c8b 5747 522a fcbf
000001f0: 42a1 dd8b 8f86 5f40 30eb 4422 efb0 4240
00000200: 0000 0000 0000 4440 decc 95fe fcfa febf
00000210: 839e e16a e29e 6040 9e7c c407 74bd 4340
0.1 5565540.424370181 -1.583551492677014e-07 0.15860068874118066 0.2 1814231.0539980521 -1.8380453225093098e-06 0.6750066248158542
0.3 71955783.56196001 -9.11077741826644e-08 1.2311425314887088 0.4 3.990029581268179 0.27403603885915406 1.5457613564344808
0.5 2.6349951701942187 0.6524954957490541 1.7237990036882263 0.6 2.159983611002711 0.9958396698475861 1.908816343750333
5.0 0.8973655550118108 12.281129467198163 7.46440837034544 8.0 -0.2105981485439192 26.184183338891472 9.048912827776498
10.0 -0.3799485586916965 33.08074268700368 10.91863026800645 15.0 -1.0245149400682112 53.01365980313425 17.21755089728773
18.0 -1.1785963346493564 62.92837896771802 20.182255316966256 23.0 -1.3942100741548935 79.98012661329597 25.04612156856674
25.0 -1.4848309217585887 86.38531160716866 27.308866449225775 30.0 -1.5431591660900348 101.9078486691149 31.050187463870877
33.0 -1.7551313900085985 111.88903450864527 34.254088876696514 38.0 -1.760332373313502 126.10251137393519 37.38229778638049
40.0 -1.936276430581351 132.96513885561225 39.48010346502382
